model/model.pth (torch, 17609 bytes, 4 tensors)

linear1.weight f4 [256, 11]
0	0x3a8c336a	0.0010696475
1	0xbdaa629c	-0.083195895
2	0xbf00f91f	-0.5038013
3	0x3eb6650f	0.35623977
4	0x3d7f8b23	0.06238855
5	0x3d181436	0.03712865
6	0xbf2359fc	-0.6380918
7	0x3de6dd97	0.11272734
8	0xbec6dd98	-0.38840938
9	0x3e9b49d8	0.30329776
10	0xbed32b2f	-0.41243884
11	0x3e0db6de	0.1383929
12	0x3dbb48fd	0.09144781
13	0xbf0007e8	-0.50012064
14	0xbdea5eda	-0.11443873
15	0x3e3b06ff	0.18264388
16	0xbe1ac9ed	-0.15116091
17	0x3e7e7a53	0.2485135
18	0xbea1f23c	-0.31630123
19	0x3e0321ee	0.12805912
20	0x3e130496	0.14357218
21	0xbe9311fc	-0.28724658
22	0x3ea4f36e	0.32216972
23	0xbdaf0bc9	-0.0854717
24	0xbe55b0b9	-0.20868196
25	0x3d88c88d	0.06678877
26	0xbe85cbb4	-0.26131976
27	0x3f067392	0.52520096
28	0x3d662d54	0.056195572
29	0xbdaef737	-0.08543246
30	0x3e8e229f	0.2776079
31	0xbec46ca8	-0.38364148
32	0xbe0d0b64	-0.13773876
33	0x3e9a7adf	0.30171868
34	0x3e596bf0	0.21232581
35	0x3f10637a	0.5640179
36	0xbed37030	-0.4129653
37	0x3deabdea	0.114620045
38	0x3d03fcb9	0.032223437
39	0xbccfb3b4	-0.025354244
40	0x3ea9754c	0.33097303
41	0xbe2ad04c	-0.16681021
42	0xbd8884a6	-0.06665926
43	0x3e233ed3	0.15941934
44	0x3e8ae1ef	0.271255
45	0x3eee862f	0.4658675
46	0xbda2bb0f	-0.07945835
47	0x3eff9191	0.49915746
48	0xbe920f06	-0.28527087
49	0xbcba1455	-0.022714773
50	0xbd7ebc2a	-0.062191166
51	0xbe9819d6	-0.2970721
52	0x3ea0ed35	0.31430975
53	0xbe7899ba	-0.24277392
54	0x3eea38b6	0.45746392
55	0xbdb32a22	-0.087482706
56	0x3ef65090	0.4810834
57	0xbe2efbca	-0.17088237
58	0xbec85f69	-0.39135292
59	0x3e749a6a	0.2388703
60	0x3e278ff3	0.16363506
61	0xbee7a9cb	-0.4524673
62	0xbf330655	-0.69931537
63	0xbd3ff5aa	-0.046865143
64	0x3e8e969a	0.27849275
65	0xbe9c2a25	-0.30500904
66	0xbe8d98ba	-0.27655584
67	0x3dac200e	0.084045514
68	0xbd6d055d	-0.057866443
69	0xbf280f31	-0.6564818
70	0xbe4965c5	-0.19667728
71	0x3f0cbdc4	0.5497706
72	0x3d728679	0.059210274
73	0xbe375095	-0.17901833
74	0xbee9e865	-0.45685115
75	0x3f136459	0.57574993
76	0xbef65b54	-0.48116553
77	0xbe94f4d5	-0.29093042
78	0x3c248751	0.010042028
79	0x3edae7db	0.42755017
80	0x3e010188	0.1259824
81	0x3e79cbc7	0.24394141
82	0xbeff5a19	-0.49873427
83	0xbed675bd	-0.41886702
84	0x3ea55e6a	0.32298595
85	0x3e445882	0.19174388
86	0xbee9ab3c	-0.45638454
87	0xbeb1878d	-0.3467373
88	0xbc2e7b57	-0.010649524
89	0x3e28d3ea	0.16487089
90	0xbdc7ae31	-0.09750021
91	0xbf03ccdb	-0.5148446
92	0xbedbb6fc	-0.42913043
93	0x3ef8fb9d	0.48629466
94	0x3ebacf5f	0.36486337
95	0xbf0a608a	-0.54053557
96	0xbf101972	-0.56288826
97	0x3eb2d6ca	0.34929496
98	0x3ea5fabe	0.32417864
99	0xbe4a4c01	-0.19755556
100	0xbe8c7e49	-0.27440098
101	0xbe6e8bce	-0.23295519
102	0xbd863048	-0.06552178
103	0xbe2e80af	-0.17041276
104	0xbe88ed60	-0.26743603
105	0xbd8d6006	-0.06903081
106	0x3e61c0e5	0.2204624
107	0xbdfc55de	-0.12321065
108	0xbe53772d	-0.2065093
109	0xbe929548	-0.28629518
110	0x3d659064	0.056045905
111	0x3e33f986	0.17575654
112	0x3dba8d61	0.09108997
113	0xbe84a81a	-0.259095
114	0xbe17ca38	-0.14823234
115	0xbe71c45d	-0.23610063
116	0xbe869eb0	-0.26292944
117	0x3ef1866c	0.47172868
118	0x3ed67d6f	0.41892573
119	0x3ecf5a71	0.4049869
120	0x3ebca93b	0.36847863
121	0xbe31dd3b	-0.17369549
122	0x3d0f77b3	0.035026263
123	0x3c958dac	0.018256031
124	0xbea143a5	-0.3149692
125	0x3eb6c021	0.35693458
126	0x3ed3e044	0.4138204
127	0xbe863301	-0.26210788
128	0xbeca2876	-0.39483994
129	0x3e3201ea	0.17383543
130	0x3e230c4c	0.1592266
131	0xbe851d62	-0.2599898
132	0xbeb08aca	-0.34480888
133	0xbd64f270	-0.05589527
134	0xbdc5947c	-0.09647462
135	0xbe6cd943	-0.23129754
136	0x3e5823b2	0.21107367
137	0xbed0dc5f	-0.4079313
138	0xbe5b353e	-0.21407029
139	0xbea62972	-0.32453495
140	0x3e9dd201	0.30824283
141	0x3dcc6289	0.099797316
142	0xbe5d732d	-0.21625967
143	0xbd308dc8	-0.043103963
144	0x3f16c361	0.58891875
145	0x3f0190ee	0.5061177
146	0xbd69e2d6	-0.057101093
147	0xbda142a3	-0.07874038
148	0xbe80e39f	-0.2517366
149	0xbe998c76	-0.29989976
150	0x3ecd0954	0.4004618
151	0x3ec871bd	0.39149275
152	0x3e4bd8d3	0.1990693
153	0x3e34959c	0.17635196
154	0x3e6069b5	0.21915324
155	0x3eebff7a	0.4609335
156	0x3ee2b09f	0.44275376
157	0xbe89a495	-0.2688338
158	0xbdd9faa7	-0.10643511
159	0xbe6d1181	-0.23151208
160	0xbe67a9a4	-0.22623307
161	0xbd3f07e4	-0.046638384
162	0xbdcc8d58	-0.09987897
163	0xbdb38f7e	-0.08767603
164	0xbe71197e	-0.23544881
165	0x3e8c2dcc	0.2737869
166	0x3f1bcf43	0.6086313
167	0xbe82a342	-0.2551518
168	0xbd619c88	-0.05508092
169	0xbe75064b	-0.23928182
170	0xbdd37a9d	-0.10326121
171	0xbe2fd7bd	-0.17172141
172	0x3e7ed09b	0.24884264
173	0x3e618307	0.22022639
174	0x3e610b6e	0.21977016
175	0x3e8c82bc	0.27443492
176	0x3e8bfeb9	0.27342775
177	0xbf462f5c	-0.77416015
178	0x3f14311f	0.5788745
179	0x3e92e996	0.28693837
180	0x3e7393b3	0.23786812
181	0x3e65dc67	0.22447358
182	0xbd491d52	-0.049100228
183	0xbe2f0f9e	-0.17095801
184	0x3e158cac	0.14604443
185	0x3e3bc803	0.18338017
186	0x3de0432e	0.109503135
187	0x3d349f21	0.04409707
188	0x3f1663b1	0.58745867
189	0x3dcc214a	0.09967287
190	0xbeb8d84a	-0.36102515
191	0xbeaa43bc	-0.33254802
192	0xbdecb74a	-0.11558397
193	0xbea4f644	-0.32219136
194	0xbba51b2e	-0.0050386405
195	0xbdd28e82	-0.102810875
196	0x3d07a03c	0.033111796
197	0xbcc0983c	-0.023510091
198	0xbeb18831	-0.34674218
199	0x3c27093a	0.010195071
200	0xbf205172	-0.62624276
201	0x3dcd7e70	0.10033882
202	0x3e8b6c8c	0.27231252
203	0x3ea24a66	0.31697387
204	0x3dd5bfa4	0.10436943
205	0xbd68adb0	-0.056806266
206	0xbde74ef9	-0.1129436
207	0x3db8a91c	0.0901663
208	0x3be290d7	0.006914239
209	0x3d8873c3	0.06662705
210	0xbe9d8d5f	-0.3077192
211	0x3e18af49	0.14910616
212	0xbed30d91	-0.41221288
213	0x3f059d48	0.5219312
214	0x3f1a0f28	0.60179377
215	0xbf27568c	-0.65366435
216	0xbed279e4	-0.4110862
217	0x3e814f78	0.25255942
218	0xbe053115	-0.13007005
219	0x3b81fd47	0.0039669606
220	0x3e1a742c	0.15083379
221	0x3d1d2df1	0.03837389
222	0xbe70dd66	-0.23521957
223	0xbe88ab63	-0.26693258
224	0xbe94d4fa	-0.29068738
225	0x3e9b62f5	0.30348936
226	0x3ecdf15e	0.4022321
227	0x3e19b4d6	0.1501039
228	0x3e8749ed	0.26423588
229	0xbee63db4	-0.4496895
230	0xbf060701	-0.5235444
231	0x3e3e8bff	0.18608092
232	0x3e842c29	0.25814942
233	0xbf13967f	-0.57651514
234	0xbdcb7d63	-0.09936025
235	0x3e78d919	0.24301566
236	0x3e7c3f5b	0.24633543
237	0x3e277974	0.16354924
238	0x3ca7e721	0.020495953
239	0x3e4b8117	0.19873463
240	0x3e4dee24	0.20110375
241	0xbe1af401	-0.15132143
242	0x3f0ef2ba	0.5583912
243	0xbb8b5332	-0.004251861
244	0x3d368550	0.04456073
245	0xbdde3dca	-0.10851629
246	0x3e0cce78	0.13750637
247	0xbd46e9f2	-0.04856295
248	0x3e5568e4	0.20840794
249	0x3ed3ab96	0.41341847
250	0x3e6b7d17	0.22996937
251	0x3e8a1dce	0.26975864
252	0x3e07a479	0.13246335
253	0x3e62ef8d	0.22161694
254	0xbc21ae36	-0.009868195
255	0x3c93e834	0.018055059

linear1.bias f4 [256]
0	0x3ed45b71	0.41476014
1	0xbd8fb458	-0.0701682
2	0xbde9deac	-0.114194244
3	0xbeced4a8	-0.4039662
4	0xbe9b639f	-0.30349442
5	0x3d8f9f34	0.070127875
6	0xbdc16424	-0.094429284
7	0x3e2ce367	0.16883622
8	0x3da693c9	0.081336565
9	0xbe6ae837	-0.22940145
10	0xbe847336	-0.2586915
11	0x3d476fd9	0.04869065
12	0xbe0d9f62	-0.13830331
13	0xbe176b33	-0.14786987
14	0xbe6425de	-0.2228007
15	0xbe7ff35a	-0.24995175
16	0xbd0e0db2	-0.03468103
17	0xbe0d0163	-0.1377006
18	0x3f9c66c8	1.2218866
19	0x3de70f43	0.11282208
20	0x3d06da82	0.03292323
21	0xbe2d2878	-0.16909969
22	0xbea320bd	-0.31860915
23	0xbe872303	-0.263939
24	0xbd30339d	-0.043017972
25	0xbe81bded	-0.25340214
26	0xbd5c0f78	-0.05372569
27	0x3e2e7d11	0.17039897
28	0x3ec59859	0.38592795
29	0xbe0bd27c	-0.13654512
30	0x3d304c35	0.043041427
31	0xbdfea5d8	-0.12433976
32	0xbe84a788	-0.25909066
33	0xbe41f4be	-0.18941018
34	0x3cae0db7	0.021246774
35	0xbdb7df68	-0.08978158
36	0xbe7c685a	-0.24649182
37	0x3fab4da0	1.3383064
38	0x3e6527a5	0.22378404
39	0xbe0a5de8	-0.13512385
40	0xbebcfe78	-0.36912894
41	0x3ca6ca57	0.020360155
42	0xbe1900ed	-0.1494176
43	0xbe74d82d	-0.2391059
44	0xbef0214c	-0.46900403
45	0xbda1b9d5	-0.07896773
46	0xbe97bf27	-0.29638025
47	0x3e9f03a5	0.31057468
48	0x3e521422	0.20515493
49	0xbea5c36f	-0.32375666
50	0x3ebd8198	0.37012935
51	0xbe7991b5	-0.24371989
52	0x3da1b4f6	0.07895844
53	0x3e0cf5fc	0.1376571
54	0xbebc31a4	-0.36756623
55	0xbec73637	-0.3890855
56	0x3e1a4ad8	0.15067613
57	0x3fb3ba9e	1.4041326
58	0x3ccdf82a	0.025142748
59	0x3ee0127d	0.43764105
60	0xbe26780a	-0.16256729
61	0xbe1c7d42	-0.15282157
62	0x3e0c6c72	0.13713244
63	0xbe3448a2	-0.17605832
64	0xbea29f0d	-0.3176197
65	0xbdf0be29	-0.1175502
66	0xbde929ca	-0.11384924
67	0x3ec434a1	0.38321403
68	0xbd93289c	-0.0718548
69	0x3ec46aec	0.38362825
70	0xbdea06ea	-0.114271
71	0x3d91f308	0.07126433
72	0xbe1bed12	-0.15227154
73	0xbe21b8e2	-0.15793183
74	0xbeae57d2	-0.34051377
75	0xbe2773d4	-0.16352779
76	0xbe3f6e4d	-0.1869442
77	0xbeaca856	-0.3372218
78	0xbd90a1ea	-0.07062133
79	0x3e2ed885	0.17074783
80	0xbeeac14b	-0.45850596
81	0x3da5fc5e	0.08104776
82	0xbcb4ed5a	-0.022085834
83	0x3c68a9bf	0.014200627
84	0x3ee40e25	0.4454204
85	0xbe2f3826	-0.17111263
86	0xbd37da90	-0.04488617
87	0xbd0bb669	-0.034109507
88	0x3cec5bad	0.028852308
89	0xbec7c354	-0.3901621
90	0x3ecd4dd9	0.40098456
91	0x3e723464	0.23652798
92	0x3dd57461	0.10422588
93	0xbd5ac848	-0.05341366
94	0x3eb7c273	0.3589054
95	0xbda66aed	-0.08125863
96	0x3cb9ad96	0.02266578
97	0x3f8229e6	1.0169036
98	0x3dca6148	0.09881836
99	0x3f8f0e91	1.117632
100	0x3f751971	0.95741946
101	0x3d196efc	0.03745936
102	0x3cedcb8b	0.02902772
103	0xbe0be2e1	-0.13660766
104	0x3da15142	0.07876827
105	0xbe1b461d	-0.15163465
106	0x3d9ed764	0.07755926
107	0xbe34ef3d	-0.17669387
108	0xbe34e525	-0.17665537
109	0xbcba9803	-0.022777563
110	0x3df85b42	0.12126781
111	0x3f73a4ba	0.9517323
112	0x3e836a13	0.25666866
113	0xbf0b5517	-0.5442671
114	0xbd83ee7d	-0.064419724
115	0x3dae9c8f	0.08525955
116	0x3f605339	0.8762699
117	0xbe5ba181	-0.21448328
118	0x3e2131f7	0.15741716
119	0x3f3ed892	0.7454921
120	0x3c11dc13	0.008902567
121	0xbdd3661f	-0.103222124
122	0x3cac782e	0.0210534
123	0xbdc7aa4b	-0.09749278
124	0xbe2dc46b	-0.16969459
125	0x3d3311de	0.04371821
126	0xbea9852a	-0.3310941
127	0xbd5e50e3	-0.05427636
128	0xbe058d2c	-0.13042134
129	0x3bc53c74	0.0060191695
130	0xbe681f25	-0.2266813
131	0x3e4012cb	0.18757169
132	0x3cb93ba6	0.02261145
133	0x3e550702	0.20803455
134	0xbe3607fb	-0.17776482
135	0x3e7cd072	0.2468889
136	0xbe51ff68	-0.20507586
137	0x3f230abc	0.63688254
138	0xbe887bc6	-0.26656932
139	0x3cbd48be	0.023105975
140	0x3d71a00e	0.05899053
141	0x3d07ce6d	0.033155847
142	0x3eda7ea0	0.42674732
143	0xbea22b93	-0.3167387
144	0xbe070329	-0.13184799
145	0xbe02afd4	-0.12762386
146	0x3ca75abc	0.020429008
147	0x3f3429ed	0.70376474
148	0xbe392438	-0.18080223
149	0xbe6a5e52	-0.22887543
150	0x3e083433	0.13301162
151	0xbd372ea3	-0.04472221
152	0x3d73ab4a	0.059489526
153	0x3e2df063	0.16986232
154	0x3e65a023	0.22424369
155	0xbe739e2f	-0.23790811
156	0xbe1b4728	-0.15163863
157	0xbe555d79	-0.20836438
158	0xbe19e26b	-0.15027778
159	0x3f20fe34	0.62887883
160	0xbe49a031	-0.19690014
161	0xbe05b7e2	-0.13058427
162	0xbe1dc7af	-0.15408204
163	0x3da255e6	0.0792654
164	0x3e192530	0.14955592
165	0xbe8f7b21	-0.28023627
166	0x3eb68ebc	0.35655773
167	0x3e69d5d7	0.2283548
168	0xbe0af90b	-0.13571565
169	0xbdb04833	-0.08607521
170	0x3e0205a4	0.12697464
171	0x3e91c500	0.28470612
172	0x3e87520f	0.26429793
173	0xbe1a53e7	-0.15071069
174	0xbdd01e93	-0.101620816
175	0x3e9bc4e4	0.30423653
176	0x3ddaa0e3	0.10675218
177	0xbb140ad5	-0.0022589464
178	0xbdf659cf	-0.120288484
179	0xbe155a73	-0.14585285
180	0xbe30fafd	-0.17283244
181	0xbe07332a	-0.13203111
182	0xbeb20e8d	-0.34776726
183	0x3d344709	0.044013057
184	0x3d060c18	0.032726377
185	0xbe9568a0	-0.29181385
186	0xbcd620cf	-0.026138691
187	0xbe5077d0	-0.20358205
188	0x3e09d04f	0.1345837
189	0x3fd3af1a	1.6537812
190	0xbce2536c	-0.02762767
191	0x3f01a972	0.5064918
192	0xbeaeb826	-0.3412487
193	0xbdce9de4	-0.10088709
194	0xbdc01791	-0.09379495
195	0x3e206580	0.15663719
196	0xbdc9b450	-0.09848845
197	0x3d8e528f	0.069493406
198	0x3e86dfd8	0.26342654
199	0xbd63bce2	-0.055600055
200	0xbe487cfa	-0.19578925
201	0x3acc9248	0.001560756
202	0x3d9e210e	0.077211484
203	0xbea99bbb	-0.33126625
204	0xbd2dfc40	-0.042476892
205	0x3e4b4ad2	0.1985276
206	0xbd924227	-0.07141524
207	0x3da8cece	0.0824257
208	0xbee2ff33	-0.44335327
209	0xbde08358	-0.10962552
210	0xbe27b3a9	-0.16377129
211	0x3eb921e2	0.36158663
212	0xbe4eaa21	-0.20182087
213	0xbd95f3e2	-0.073219076
214	0xbe9032dd	-0.28163806
215	0x3fe6f173	1.8042434
216	0x3c092c54	0.008372385
217	0xbd5e7685	-0.054312248
218	0xbe4af52f	-0.19820093
219	0xbd436a55	-0.047708828
220	0x3e2917e2	0.16513017
221	0x3d5be2d8	0.053683132
222	0x3ed3a090	0.41333437
223	0xb91b7a12	-0.00014827427
224	0xbe69fcef	-0.22850393
225	0xbd544caa	-0.051830925
226	0xbdcc9627	-0.09989577
227	0xbeb0bb64	-0.34517968
228	0xbbb0076e	-0.0053719794
229	0x3bd95025	0.0066318684
230	0xbd0e6a68	-0.034769446
231	0xbe4ea167	-0.20178758
232	0xbced7895	-0.028988162
233	0xbece9a14	-0.40351927
234	0x3e9a09f2	0.30085713
235	0xbd83e1d0	-0.06439555
236	0xbeccea81	-0.40022662
237	0x3e03e361	0.12879707
238	0x3ade89b6	0.0016978297
239	0x3e0020af	0.12512468
240	0x3ee70d05	0.4512712
241	0x3e816fc3	0.2528058
242	0x3f649401	0.89288336
243	0x3d7f35ab	0.06230704
244	0xbca0e548	-0.01964058
245	0x3f34ba06	0.7059635
246	0xbebc2e9c	-0.3675431
247	0x3ed2fad7	0.41207
248	0xbc274427	-0.01020912
249	0x3e522eb4	0.20525628
250	0xbe76ae49	-0.24089922
251	0xbea2b004	-0.31774914
252	0x3dddc485	0.10828499
253	0x3d8e4c6d	0.06948171
254	0xbe5c8985	-0.21536835
255	0xbe0518a7	-0.12997685

linear2.weight f4 [3, 256]
0	0x3e61432f	0.21998285
1	0x3d7672a4	0.060167924
2	0xbee9ebef	-0.45687816
3	0xbe31c395	-0.17359765
4	0xbe1d227c	-0.15345186
5	0x3e95f410	0.29287767
6	0x3f0c7377	0.54863685
7	0x3eb683b6	0.35647362
8	0x3f2f0f32	0.6838256
9	0x3c8be9c2	0.017079238
10	0xbe14ccb3	-0.14531212
11	0x3e90998a	0.2824214
12	0x3e0f2cd6	0.13981947
13	0xbcbd6f7a	-0.023124445
14	0xbe0715ef	-0.13191961
15	0x3c06e4ed	0.008233291
16	0x3d8503b7	0.06494849
17	0x3c254c02	0.010088922
18	0x3e7c519f	0.24640511
19	0x3e950c81	0.29111102
20	0xbdd8c3b7	-0.10584205
21	0x3dbd32f1	0.09238232
22	0xbe96e7c1	-0.2947369
23	0xbeadf16d	-0.33973256
24	0x3e39f9d3	0.18161707
25	0xbd8212f5	-0.06351272
26	0xbf270ad8	-0.6525092
27	0x3e297ea5	0.16552217
28	0x3ea47f81	0.32128528
29	0xbee10ae7	-0.4395363
30	0xbc8ae105	-0.016953
31	0xbf2a2856	-0.664678
32	0x3d1d552d	0.038411308
33	0x3d66a752	0.056311913
34	0x3eab4c28	0.3345654
35	0x3d6aa117	0.057282533
36	0xbd36294d	-0.04447298
37	0x3e560304	0.20899588
38	0x3e739951	0.23788954
39	0xbdae3198	-0.08505553
40	0xbe2518b0	-0.16122699
41	0x3db5e34a	0.088812426
42	0xbe86cf75	-0.26330152
43	0xbd035e42	-0.032072313
44	0xbd9f0583	-0.07764723
45	0xbdffc315	-0.12488381
46	0xbea49ec8	-0.3215239
47	0x3eb19e54	0.34691107
48	0x3e56cdeb	0.20976989
49	0x3daac051	0.08337463
50	0x3e893bd4	0.26803458
51	0x3c6459f8	0.013937466
52	0x3d6d2f36	0.057906352
53	0xbd919432	-0.07108344
54	0xbd96d748	-0.073652804
55	0xbc24ff83	-0.010070684
56	0x3f292e72	0.66086495
57	0x3f1637d2	0.58678925
58	0x3e514ec3	0.20440201
59	0x3e3cb1f9	0.18427266
60	0xbe66fd83	-0.22557645
61	0x3dd3096d	0.10304532
62	0x3ed354b7	0.4127557
63	0xbeedcedd	-0.46446887
64	0x3d226b86	0.039653324
65	0xbeda29c5	-0.42609993
66	0x3dca049d	0.09864161
67	0x3e324d25	0.17412241
68	0xbf4565e0	-0.77108574
69	0x3e8adf5a	0.2712353
70	0x3e799095	0.2437156
71	0xbf0c45de	-0.5479411
72	0xbc33f70b	-0.010984193
73	0x3cab61ed	0.020920718
74	0x3cf16b7e	0.029470202
75	0xbeb84fb4	-0.3599831
76	0xbd8550d2	-0.06509556
77	0xbdfff064	-0.12497023
78	0xbf27283d	-0.65295774
79	0x3d2d08dc	0.042244777
80	0xbe731285	-0.23737533
81	0xbf004f14	-0.50120664
82	0x3e97de0b	0.29661593
83	0x3e5780fc	0.21045297
84	0x3ee168af	0.4402518
85	0xbd9d0c77	-0.07668393
86	0xbdad0fe5	-0.08450297
87	0xbecd4124	-0.4008876
88	0x3df97d7f	0.121821396
89	0xbcc219ff	-0.023694037
90	0x3e0f0a78	0.13968837
91	0xbe22a72c	-0.15884084
92	0x3dbe91f3	0.09305181
93	0xbe1146e3	-0.14187197
94	0x3ec64ee0	0.38732052
95	0xbedd41d7	-0.43214294
96	0x3db96263	0.09051969
97	0x3ea4b80d	0.3217167
98	0x3e9b2c1a	0.30307084
99	0x3ec3c178	0.38233542
100	0x3e894759	0.26812246
101	0x3d9d91f7	0.07693856
102	0xbc90e9b7	-0.017689569
103	0xbdafd34c	-0.085852236
104	0xbe81389d	-0.25238505
105	0xbba1ebac	-0.0049414244
106	0xbcff7fa8	-0.0311888
107	0xbe4a4a29	-0.19754852
108	0xbf09ea35	-0.53872997
109	0xbd360495	-0.044437964
110	0x3d8d7936	0.06907885
111	0x3e83a16d	0.25709096
112	0xbf3fe65c	-0.74960876
113	0xbe36f9eb	-0.17868774
114	0x3e94eeb1	0.29088357
115	0x3ec8bb4a	0.3920539
116	0x3e172ccc	0.14763182
117	0x3e19b54b	0.15010564
118	0x3e3431a1	0.17597057
119	0x3eb85ea1	0.36009696
120	0x3e39add6	0.1813272
121	0x3eb1fea0	0.34764576
122	0x3d4736a5	0.048636097
123	0x3b917407	0.0044388804
124	0xbb92f474	-0.0044847075
125	0xbeb21850	-0.34784174
126	0xbdd346b6	-0.103162214
127	0xbf3b926a	-0.73270285
128	0x3dc396e8	0.095502675
129	0xbec0a254	-0.37623847
130	0xbd3bf38c	-0.04588656
131	0x3eb51cb1	0.35373452
132	0xbe8cb64b	-0.27482828
133	0x3eb066b7	0.34453365
134	0xbed229f4	-0.41047633
135	0x3dc6f439	0.097145505
136	0xbf07b8ae	-0.53016174
137	0x3e52b796	0.20577845
138	0x3c9df0a3	0.019279784
139	0xbdccb8b3	-0.09996166
140	0x3efa9538	0.4894197
141	0x3de3eeec	0.11129555
142	0x3e61e739	0.2206086
143	0xbda1ce26	-0.07900648
144	0xbf3fd8a1	-0.74939924
145	0xbf013ba1	-0.5048161
146	0x3e5cc6cb	0.21560208
147	0x3e011c1e	0.12608382
148	0xbe902c7f	-0.28158948
149	0xbca8171b	-0.02051883
150	0x3e3e8b3d	0.18607803
151	0x3ce77940	0.028256059
152	0xbe989b76	-0.29806107
153	0x3e92012e	0.28516525
154	0x3e6134c0	0.21992779
155	0xbe5e93f3	-0.21736126
156	0x3c6e5271	0.014546023
157	0xbd970c3a	-0.07375379
158	0xbd50d9a7	-0.05098882
159	0x3da857ea	0.08219893
160	0xbea0fe64	-0.31444085
161	0x3daaf328	0.083471596
162	0xbf388ffe	-0.72094715
163	0x3e605a50	0.21909451
164	0x3e9bc6cc	0.30425107
165	0xbd909276	-0.07059185
166	0x3e0f4fe2	0.13995317
167	0x3e4dd1ee	0.20099613
168	0x3d117505	0.03551199
169	0x3ca0bdca	0.019621748
170	0x3dca50d4	0.09878698
171	0x3ec7871b	0.38970265
172	0x3dc87612	0.09788145
173	0x3ea1e1ff	0.31617734
174	0x3d2332cd	0.03984337
175	0x3eb1acaf	0.3470206
176	0xbed84a6c	-0.4224428
177	0x3ed2d45f	0.4117765
178	0x3e75d8b9	0.24008454
179	0x3de1bfee	0.11022936
180	0x3da08e7f	0.07839679
181	0x3d4c2f1c	0.049849615
182	0xbd51bd41	-0.051205877
183	0x3cbd6c7b	0.023123017
184	0xbe905e52	-0.2819696
185	0x3bd7484b	0.0065698973
186	0x3d388726	0.045050763
187	0xbf243982	-0.6415025
188	0x3e302ab9	0.17203797
189	0x3e92ff0f	0.2871022
190	0x3e1f39ab	0.15549342
191	0x3e3f67d4	0.18691951
192	0xbef0cad4	-0.47029746
193	0x3e2f6050	0.17126584
194	0xbe896f44	-0.268427
195	0x3d8c44d0	0.068490624
196	0xbb2e558c	-0.0026601283
197	0x3eae4c4b	0.34042582
198	0xbc58895a	-0.013216341
199	0x3e8bcf70	0.273067
200	0x3d0e0d71	0.034680787
201	0x3e479c21	0.19493152
202	0x3d4623a0	0.04837382
203	0x3cd17071	0.025566312
204	0xbf1809ac	-0.5938976
205	0x3f041eb4	0.5160935
206	0x3ccc2d46	0.024923932
207	0x3f1d51e0	0.61453056
208	0xbdbda90d	-0.092607595
209	0xbcca4459	-0.024690794
210	0x3d2facee	0.042889528
211	0x3eaf6eba	0.34264165
212	0xbdf80a78	-0.12111372
213	0xbdb9e297	-0.09076422
214	0xbd7d75e9	-0.061880026
215	0x3ebc272f	0.36748645
216	0x3e4ecfc6	0.20196447
217	0x3e022bc4	0.12712008
218	0xbe77fb14	-0.24216872
219	0xbedf0652	-0.4355951
220	0x3eb4a1fb	0.3527983
221	0x3e49cbee	0.19706699
222	0x3c3d2153	0.01154359
223	0x3ec2f6d9	0.38078955
224	0xbc409699	-0.011754655
225	0xbda52a99	-0.080647655
226	0xbe018f82	-0.126524
227	0xbd56ed39	-0.052472327
228	0xbf14e1cb	-0.5815703
229	0x3e8e3346	0.27773494
230	0xbd37df1f	-0.04489052
231	0xbe1ad684	-0.15120894
232	0x3e635c68	0.22203219
233	0xbdc318aa	-0.09526189
234	0x3ddc07e0	0.107436895
235	0x3e97b024	0.29626572
236	0xbe09a95c	-0.13443512
237	0x3eafa60b	0.34306368
238	0xbec8cf6e	-0.39220756
239	0x3e776937	0.2416123
240	0x3eabb13f	0.33533666
241	0x3ecbe383	0.39822015
242	0x3ed9bdef	0.4252772
243	0x3e752d88	0.2394315
244	0x3e9ffb82	0.31246573
245	0x3e1ec0e7	0.15503274
246	0x3cafd32e	0.021463003
247	0x3e4dde78	0.20104396
248	0x3df2ec6f	0.118615024
249	0x3dc98c01	0.09841157
250	0xbd477ab5	-0.048701007
251	0xbd4b170e	-0.049582534
252	0x3f07c59d	0.5303591
253	0xbe88c15d	-0.26710024
254	0x3e6bfcb4	0.23045617
255	0xbe1437c4	-0.14474398

linear2.bias f4 [3]
0	0x3e975e04	0.29563916
1	0x3e7b15e7	0.24520074
2	0x3e78b856	0.24289069
