model/model.pth (torch, 17609 bytes, 4 tensors)

linear1.weight f4 [256, 11]
0.04829946 -0.22091979 -0.002072868 0.09614963 -0.20571257 -0.095573924 0.3603227 0.18377261
-0.23390917 0.006538382 -0.09278493 -0.04249483 -0.33616877 0.17731547 -0.085433476 -0.24372256
0.30510318 -0.013451307 -0.0011623229 0.16968702 0.2932494 0.2477894 -0.20397595 0.30486318
-0.03068095 0.40624717 -0.030901885 0.2466875 0.15937431 -0.19448322 -0.0367614 0.27530003
0.08998139 -0.066269875 -0.088845715 0.22821586 0.03292781 0.22778186 -0.08786568 -0.040531993
0.29124257 -0.2768272 -0.21841963 -0.18180214 0.043514818 -0.030700237 -0.0057676453 -0.25217998
-0.1831765 0.004552603 0.17726108 0.0031624034 -0.07411006 -0.045692325 -0.17822206 -0.26815695
0.0674457 -0.08226505 -0.13001767 -0.2505684 -0.010199069 0.04095496 0.11523057 0.03241407
0.11244267 0.07109205 0.27906692 0.21785796 0.005273704 -0.26049566 -0.107916825 0.32613218
-0.10997684 -0.2883212 -0.05104629 -0.19482964 0.05781506 -0.0012068097 -0.14160246 0.089381985
0.04174223 -0.038625512 -0.3377895 0.2920488 0.39569688 -0.2710732 -0.022804065 -0.0473805
0.3291623 -0.22570163 0.2010581 0.23194467 0.005994998 -0.11223349 -0.32559395 0.16243367
0.25755128 0.102919646 0.2263835 0.19196506 -0.06350136 0.19381002 -0.38499376 0.12040313
0.08453167 0.1335097 0.17500709 -0.21393183 -0.2560719 0.16430883 0.37402207 0.011300202
0.36795276 -0.20695777 0.026946014 0.27102903 -0.17919402 0.2457043 -0.242506 -0.091672905
0.15984692 -0.29647878 -0.08960298 -0.1713264 0.2942288 -0.15954958 -0.28240824 -0.15550765
0.11979881 0.020022273 -0.15483283 -0.22241479 0.1359952 -0.04355834 0.11051394 0.13837478
-0.31720906 -0.12814398 -0.057306375 0.18587191 -0.32041544 0.20788135 0.16829863 0.06325984
0.06932518 -0.011757958 0.08025778 -0.27220422 -0.16847129 0.05392668 0.10575298 -0.26080236
0.21164614 0.15507355 0.23253433 0.10072464 -0.033583622 0.13971148 -0.11007156 -0.20817992
0.09306902 0.040205844 -0.17471018 0.110353515 0.075421356 0.056995504 -0.03488717 0.16435382
0.048046846 0.29040045 0.019507969 0.06948036 0.0439886 0.22626157 0.29837236 -0.19566807
0.21348591 -0.2416086 -0.22047752 -0.23809062 0.31517318 -0.007652461 -0.26900676 0.21902207
-0.26729706 0.056385998 -0.19486679 -0.30118707 -0.029614914 -0.25671223 -0.17614283 0.016731573
-0.1179473 0.13396442 0.2518588 0.18437679 0.13656741 -0.051534783 0.3055197 -0.20696369
0.2563242 -0.07939709 -0.18649094 0.10767447 0.10446879 0.08220027 -0.019495811 0.2808773
-0.33684167 -0.02489401 -0.101997174 -0.06469356 0.024330826 -0.02085529 0.13120972 0.03756624
-0.017114177 0.15225504 0.089386225 0.20634462 -0.22261393 -0.2548568 0.39388835 0.23029548
-0.09660811 -0.22957927 -0.27197424 -0.12980272 0.25254887 -0.08948571 0.18258643 -0.21729991
0.21199693 -0.10495837 0.22613242 0.15861733 -0.17875166 0.018936258 -0.060143966 0.1622439
0.26044622 0.1873552 0.11718422 0.035519905 0.15411167 0.0032643923 0.23410842 -0.05763521
0.123217404 0.08282721 -0.046155762 0.2387077 0.005592252 0.27075323 0.2999616 0.2193411
00000000: a8d5 453d cc38 62be f4d8 07bb 19ea c43d
00000010: 51a6 52be 43bc c3bd 387c b83e e32e 3c3e
00000020: e385 6fbe ec3f d63b 0606 bebd 0f0f 2ebd
00000030: 501e acbe 3092 353e bff7 aebd 6892 79be
00000040: 7c36 9c3e df62 5cbc 1659 98ba 6fc2 2d3e
00000050: c924 963e 81bc 7d3e 12df 50be 0717 9c3e
00000060: 9e56 fbbc a1ff cf3e f325 fdbc a69b 7c3e
00000070: 0533 233e 9c26 47be 1f93 16bd 20f4 8c3e
00000080: 2a48 b83d 80b8 87bd bef4 b5bd 6bb1 693e
00000090: 50df 063d a63f 693e ecf2 b3bd e004 26bd
000000a0: bf1d 953e 4bbc 8dbe 65a9 5fbe 572a 3abe
000000b0: 983c 323d 107f fbbc 84fe bcbb bc1d 81be
000000c0: 9f92 3bbe 002e 953b ee83 353e 5340 4f3b
000000d0: 04c7 97bd e027 3bbd d87f 36be de4b 89be
000000e0: f920 8a3d 947a a8bd 5a23 05be 804a 80be
000000f0: ff19 27bc 63c0 273d 01fe eb3d 9ec4 043d
00000100: 5848 e63d b598 913d dce1 8e3e 2816 5f3e
00000110: 09cf ac3b b05f 85be 7f03 ddbd ccfa a63e
00000120: 8a3b e1bd d69e 93be ea15 51bd 6c81 47be
00000130: 7ccf 6c3d d02d 9eba 3c00 11be e70d b73d
00000140: e7f9 2a3d c935 1ebd bff2 acbe 6c87 953e
00000150: c898 ca3e 1bca 8abe 97cf babc 0e12 42bd
00000160: f687 a83e 541e 67be 2de2 4d3e e782 6d3e
00000170: b071 c43b acda e5bd 40b4 a6be 0355 263e
00000180: c3dd 833e 89c7 d23d 14d1 673e 7d92 443e
00000190: 000d 82bd 2276 463e e71d c5be eb95 f63d
000001a0: f11e ad3d c4b6 083e 0f35 333e f210 5bbe
000001b0: db1b 83be 9340 283e d27f bf3e 7c24 393c
000001c0: 4e64 bc3e bdec 53be e3bd dc3c 51c4 8a3e
000001d0: a37e 37be e899 7b3e 7e53 78be 01bf bbbd
000001e0: e9ae 233e 11cc 97be c481 b7bd 3070 2fbe
000001f0: 28a5 963e f760 23be d097 90be 663d 1fbe
00000200: 1459 f53d c005 a43c 7f8c 1ebe b4c0 63be
00000210: 5342 0b3e 3b6a 32bd 2255 e23d 1eb2 0d3e
00000220: 3a69 a2be 2d38 03be 17ba 6abd 3555 3e3e
00000230: 7e0d a4be d9de 543e 7a56 2c3e 608e 813d
00000240: 5cfa 8d3d 73a4 40bc 315e a43d 5a5e 8bbe
00000250: bd83 2cbe 39e2 5c3d 0595 d83d e387 85be
00000260: c4b9 583e 9acb 1e3e 7b1d 6e3e b848 ce3d
00000270: fb8e 09bd 8710 0f3e 336d e1bd 1e2d 55be
00000280: f89a be3d e2ae 243d 3ae7 32be 0601 e23d
00000290: 8376 9a3d 1e74 693d d9e5 0ebd 5e4c 283e
000002a0: c5cc 443d 5eaf 943e 2dcf 9f3c b84b 8e3d
000002b0: 642d 343d 1db1 673e 43c4 983e 365d 48be
000002c0: 0d9c 5a3e 3f68 77be dcc4 61be 07ce 73be
000002d0: 615e a13e 7fc1 fabb 41bb 89be 5247 603e
000002e0: 29db 88be 01f5 663d 298b 47be 3135 9abe
000002f0: fa9a f2bc c96f 83be c95e 34be a710 893c
00000300: 5b8e f1bd f82d 093e a3f3 803e 45cd 3c3e
00000310: 54d8 0b3e 2316 53bd 146d 9c3e 4aee 53be
00000320: ed3c 833e f19a a2bd 7bf7 3ebe 6f84 dc3d
00000330: bcf3 d53d 9d58 a83d aeb5 9fbc 26cf 8f3e
00000340: 8376 acbe 86ee cbbc e5e3 d0bd 0f7e 84bd
00000350: 7151 c73c b7d8 aabc d75b 063e 0fdf 193d
00000360: 0833 8cbc bfe8 1b3e 2010 b73d 014c 533e
00000370: e8f4 63be 977c 82be bcab c93e 94d2 6b3e
00000380: 79da c5bd d416 6bbe 3540 8bbe 01eb 04be
00000390: 164e 813e 4944 b7bd f0f7 3a3e de83 5ebe
000003a0: b915 593e 6af4 d6bd 428f 673e 956c 223e
000003b0: ad0a 37be 3620 9b3c 8559 76bd 4423 263e
000003c0: 3559 853e 0bda 3f3e 48fe ef3d 527d 113d
000003d0: 73cf 1d3e 6aef 553b 1eba 6f3e e612 6cbd
000003e0: 6859 fc3d 50a1 a93d d30d 3dbd cb6f 743e
000003f0: 363f b73b 2ba0 8a3e 9194 993e f49a 603e

linear1.bias f4 [256]
-0.0071952483 -0.06589152 0.30330282 -0.034874834 -0.24077201 -0.29117325 -0.12684281 -0.004663934
-0.21415114 -0.051908243 0.2514568 0.25860372 0.13545115 0.034242347 0.27658123 -0.022263948
-0.050540395 -0.19776317 0.115982376 -0.14567615 0.34558845 -0.14005433 0.15279272 -0.110746995
0.08320908 -0.10520114 0.012889357 0.040998794 0.08700552 0.0058428296 0.042259444 0.28976476
0.004637355 0.06680912 -0.18199438 -0.16215259 0.13253596 0.3121907 0.058945987 0.06611227
0.24968901 0.15814441 0.2197552 0.18813671 -0.20351173 -0.12156199 0.097440235 -0.20082888
-0.19719076 0.24345584 -0.0907245 -0.09660578 -0.011455495 -0.13846637 0.07166262 0.09586536
-0.22483137 -0.26428205 0.16464427 -0.04733424 -0.14534502 0.12931195 0.22817953 0.16283147
0.31661797 -0.20512745 -0.21513824 0.28574076 -0.19045794 0.15584667 0.121044576 0.27360722
-0.17814763 0.07231586 0.029445224 0.23369913 0.23088393 0.19770674 0.27162355 -0.20704432
0.21861114 0.17603561 -0.14610527 -0.0043030814 0.29739192 -0.04556741 0.012915544 -0.047490146
-0.07643744 -0.22194767 0.0014091585 0.13999973 0.14501852 0.013599481 -0.1953862 0.18024324
-0.22430432 -0.21767059 0.0859058 -0.10312625 0.26809257 0.09754585 0.11556836 -0.01256321
-0.26011464 0.06365842 0.19660273 0.23433697 0.0626335 -0.2108223 -0.069484435 0.11395097
-0.16097057 -0.011619979 0.06884811 -0.31938544 -0.02131173 -0.14696424 0.14261878 0.08263039
0.17643078 0.32940808 -0.22559828 0.12358092 -0.03857804 -0.068802066 -0.057821035 0.22537689
0.23252402 0.02894895 0.12973742 0.21236733 0.325731 -0.06855267 -0.13011336 0.079615824
0.11971212 -0.26412895 -0.24033001 -0.18344611 -0.12475125 -0.04207338 0.4114198 0.06300779
-0.14190558 -0.04433232 0.34936202 -0.24836896 0.14738424 0.085892886 0.061938856 0.18385972
0.069823965 0.22364914 -0.007709651 0.20358983 0.19268529 0.078189634 -0.21372557 -0.16867007
-0.024547232 -0.10030856 0.26299182 0.061212357 0.09136592 0.21509433 0.29474628 0.15104221
0.17740238 -0.12109439 -0.108275816 0.07245193 0.25131893 -0.0003333107 0.26281494 0.047981676
-0.111564994 0.1733183 -0.22738364 -0.20274214 -0.27998796 0.15907745 0.03646092 -0.22650729
-0.28023338 0.23287347 -0.26659897 -0.2562088 0.19016677 0.06582456 0.11039657 -0.00039721676
0.09018062 -0.21029249 0.12116127 -0.19742495 0.082678005 0.13802376 0.036086947 0.023412853
0.023623465 -0.2791611 0.3003736 0.15111491 0.04712556 -0.23640133 0.21732669 -0.3371857
0.18335986 0.27911714 0.20834188 -0.23948622 0.0055394117 -0.2744142 0.1710244 0.2689581
-0.19428156 0.23374283 0.2670808 -0.05344252 -0.086982064 -0.15368044 -0.009363624 -0.22684035
-0.1892438 0.10693075 0.15857072 0.0062321224 -0.17800198 0.116932094 0.23450573 -0.15581176
-0.17454495 0.087515764 -0.03197749 0.3032306 -0.27108085 0.10001486 -0.0005296665 -0.26979128
-0.13871704 0.01486201 0.02878775 0.17907174 -0.007756144 0.1396949 -0.1584222 -0.2782343
-0.21159172 0.24768704 -0.0360277 0.1977046 0.2834657 -0.13026671 -0.04535489 -0.25740597
00000000: 1ec6 ebbb 22f2 86bd 824a 9b3e ead8 0ebd
00000010: f08c 76be a914 95be 15e3 01be ead3 98bb
00000020: 704a 5bbe bd9d 54bd f2be 803e b567 843e
00000030: b5b3 0a3e b441 0c3d 0e9c 8d3e e262 b6bc
00000040: 7203 4fbd 6e82 4abe 2b88 ed3d 212c 15be
00000050: f8f0 b03e 676a 0fbe b275 1c3e 52cf e2bd
00000060: 8669 aa3d b273 d7bd e22d 533c 5aee 273d
00000070: f32f b23d 3575 bf3b 3d18 2d3d 0c5c 943e
00000080: f4f4 973b 38d3 883d bc5c 3abe 540b 26be
00000090: 82b7 073e 76d7 9f3e 5971 713d df65 873d
000000a0: 7aae 7f3e 9cf0 213e 8207 613e e9a6 403e
000000b0: 6165 50be 7ef5 f8bd bf8e c73d 16a6 4dbe
000000c0: 60ec 49be 7d4c 793e c4cd b9bd 40d9 c5bd
000000d0: d4af 3bbc 21ca 0dbe dac3 923d 0f55 c43d
000000e0: 323a 66be fa4f 87be 8298 283e 8ce1 41bd
000000f0: 53d5 14be 5a6a 043e e5a7 693e 4bbd 263e
00000100: c01b a23e ee0c 52be 334d 5cbe 9d4c 923e
00000110: 6807 43be 4596 1f3e 38e6 f73d 3f16 8c3e
00000120: 556c 36be 561a 943d 1c37 f13c d34e 6f3e
00000130: d66c 6c3e a373 4a3e 3e12 8b3e 6d03 54be
00000140: 99db 5f3e ae42 343e 9f9c 15be dd00 8dbb
00000150: c143 983e e4a4 3abd b89b 533c 0785 42bd
00000160: 3c8b 9cbd 4046 63be 83b3 b83a 175c 0f3e
00000170: bc7f 143e 5cd0 5e3c 5213 48be af91 383e
00000180: 08b0 65be 0ae5 5ebe 61ef af3d db33 d3bd
00000190: 6e43 893e 1ec6 c73d 1baf ec3d ecd5 4dbc
000001a0: bf2d 85be 595f 823d 3a52 493e 08f6 6f3e
000001b0: fe45 803d cde1 57be db4d 8ebd 205f e93d
000001c0: 78d5 24be b961 3ebc 3d00 8d3d 7d86 a3be
000001d0: f095 aebc cb7d 16be a80a 123e 1f3a a93d
000001e0: 45aa 343e 2da8 a83e 3c03 67be fe17 fd3d
000001f0: 0204 1ebd 19e8 8cbd c0d5 6cbd 33c9 663e
00000200: c71a 6e3e 5926 ed3c e3d9 043e d276 593e
00000210: 37c6 a63e 5865 8cbd 703c 05be 9f0d a33d
00000220: a12b f53d e93b 87be 1219 76be 4cd9 3bbe
00000230: 957d ffbd 2355 2cbd 9ea5 d23e 3a0a 813d
00000240: b24f 11be cf95 35bd 94df b23e 6f54 7ebe
00000250: e5eb 163e 9ce8 af3d 99b3 7d3d b945 3c3e
00000260: deff 8e3d 4804 653e 3da1 fcbb da79 503e
00000270: 4b4f 453e e321 a03d e0da 5abe d9b7 2cbe
00000280: 4717 c9bc 936e cdbd dda6 863e cfb9 7a3d
00000290: 0e1e bb3d b041 5c3e fce8 963e cfaa 1a3e
000002a0: f8a8 353e 5600 f8bd b6bf ddbd ad61 943d
000002b0: e0ac 803e 34c0 aeb9 ae8f 863e 6f88 443d
000002c0: 307c e4bd 5a7a 313e 42d7 68be a39b 4fbe
000002d0: 955a 8fbe 33e5 223e 0c58 153d 87f1 67be
000002e0: c07a 8fbe 6276 6e3e a97f 88be cd2d 83be
000002f0: 14bb 423e 07cf 863d 9917 e23d 8841 d0b9
00000300: 9eb0 b83d ea56 57be 6623 f83d c429 4abe
00000310: 1653 a93d 1a56 0d3e e8cf 133d 50cc bf3c
00000320: ff85 c13c 34ee 8ebe 92ca 993e debd 1a3e
00000330: bb06 413d 3113 72be e38a 5e3e 9ba3 acbe
00000340: b0c2 3b3e 71e8 8e3e 9357 553e e03b 75be
00000350: f483 b53b 0580 8cbe 0521 2f3e e0b4 893e
00000360: bff1 46be 485a 6f3e d1be 883e 8be6 5abd
00000370: a723 b2bd 685e 1dbe e369 19bc d648 68be
00000380: 20c9 41be 82fe da3d 5d60 223e d536 cc3b
00000390: 2746 36be 187a ef3d 4522 703e 1e8d 1fbe
000003a0: e9bb 32be 773b b33d d4fa 02bd 0b41 9b3e
000003b0: 1ccb 8abe 97d4 cc3d 51d9 0aba 1522 8abe
000003c0: d70b 0ebe ca7f 733c 4ad4 eb3c 955e 373e
000003d0: 4027 febb 2e0c 0f3e 6e39 22be ba74 8ebe
000003e0: 80ab 58be aca1 7d3e c891 13bd 1373 4a3e
000003f0: 6b22 913e a364 05be 0dc6 39bd b7ca 83be

linear2.weight f4 [3, 256]
-0.004729562 0.010179527 -0.047914688 -0.14067523 0.026148811 -0.022256713 -0.123056464 0.014949729
-0.060561668 0.0007767297 -0.03779765 -0.074748404 -0.07793598 -0.049617175 -0.106549285 0.018628517
-0.023805326 -0.028098555 -0.07670417 0.0011100858 0.0044409595 -0.02985552 -0.033136282 -0.032510333
-0.008714989 0.030614866 0.04433193 -0.16477618 0.062217496 -0.018468164 -0.010254052 -0.07668239
-0.051845893 -0.036295004 0.03336962 0.02008231 0.008722508 -0.014730705 -0.04298433 0.012350099
-0.0809078 -0.031841416 -0.075168654 -0.09963549 -0.064630084 0.021754548 -0.020952681 -0.044282846
0.059754 0.007733182 0.05783201 -0.07942985 -0.090704635 0.02766065 0.043009706 0.078271315
0.04892908 -0.03757894 -0.10098534 0.042965133 0.03932911 -0.049359195 -0.06636162 0.084702976
-0.08916245 0.06141127 0.00061323104 -0.10096575 -0.05096717 -0.11429953 0.010743524 0.006782612
0.053542804 -0.05393428 -0.06099377 -0.0938045 -0.08517504 -0.047958035 -0.021482069 0.051640198
0.07508769 0.029303163 0.0027336709 -0.08284985 -0.08487728 0.010493513 0.027941892 -0.029142084
-0.1749997 -0.05175865 -0.01567523 -0.104021415 -0.07895859 -0.029314253 0.007055004 0.04483227
-0.091429085 0.049208734 0.07777547 -0.023471463 0.011556232 -0.053585418 -0.07354319 -0.0022232311
-0.097549565 -0.014508182 -0.09956465 -0.033361793 -0.08344253 -0.046599977 -0.07212775 -0.19244486
-0.013406302 -0.04576133 0.035000756 0.0010387877 0.057366624 -0.13339803 0.02491763 -0.059555713
-0.020053761 -0.09092965 -0.10460699 -0.008284146 -0.023687547 -0.032198343 -0.022160307 -0.01774234
0.028077994 0.047175225 -0.06347216 -0.065733135 -0.039722435 0.00712755 0.041325282 -0.045275684
-0.050462954 0.029476073 -0.052293494 -0.0035540469 -0.001160987 0.0074417316 -0.11472346 -0.10862789
0.005232789 -0.015421622 -0.066054344 0.045380298 -0.059286512 -0.0020597219 0.0021932616 -0.064349785
-0.010643027 0.047793463 0.012525878 -0.13801105 -0.03425829 -0.008292891 0.011454712 -0.016618205
-0.0705315 -0.049597938 -0.016621526 0.03567871 -0.096687585 -0.1127361 -0.03175814 0.012700231
-0.1449561 0.030173305 0.024508655 -0.04003938 -0.06649143 -0.065031834 -0.08764711 -0.015803842
-0.054141797 -0.11679855 0.015060977 -0.093496844 -0.023383757 -0.022265598 0.006040877 -0.10619597
0.056645207 -0.00752599 -0.036497507 -0.03259839 -0.037927434 -0.0865562 -0.002183923 0.104790196
0.036976904 -0.028381683 -0.0060092704 -0.10850669 -0.06813807 -0.019846251 0.018213429 -0.020999577
-0.104737766 -0.0240837 -0.044235032 -0.029469673 -0.06138177 -5.8262434e-05 0.017603425 -0.016508762
-0.08490491 -0.024970943 -0.048654683 0.057709116 -0.011111284 -0.0078117023 -0.094947964 -0.030366527
-0.07938332 -0.0808112 -0.06302825 -0.0888754 0.020730715 0.007971436 -0.04354171 0.014494445
-0.08086998 0.054755602 -0.019376371 -0.021543877 -0.04569581 0.057980172 -0.040487286 0.023125993
0.023090493 -0.01842926 -0.030851712 -0.026869722 -0.07774796 -0.02879956 -0.08284492 0.05000878
0.01065337 -0.057634253 -0.06771134 -0.08670845 0.05950761 -0.113351494 -0.018824548 0.021636209
0.04106283 -0.05762029 -0.10003449 0.004632819 -0.079441845 -0.11286262 -0.04804959 -0.06448462
00000000: 71fa 9abb 08c8 263c 3142 44bd 2b0d 10be
00000010: 0836 d63c b653 b6bc 0705 fcbd b5ef 743c
00000020: 830f 78bd 739d 4b3a b5d1 1abd b115 99bd
00000030: e69c 9fbd 613b 4bbd 8336 dabd d59a 983c
00000040: 6303 c3bc f12e e6bc 1317 9dbd 4c80 913a
00000050: 7885 913b 9093 f4bc e9b9 07bd 8e29 05bd
00000060: 50c9 0ebc 07cc fa3c 6695 353d 16bb 28be
00000070: c6d7 7e3d 8c4a 97bc 9c00 28bc a80b 9dbd
00000080: 5c5c 54bd 12aa 14bd 95ae 083d a883 a43c
00000090: dae8 0e3c 0e59 71bc 5610 30bd 1258 4a3c
000000a0: fdb2 a5bd 256c 02bd 06f2 99bd b10d ccbd
000000b0: c75c 84bd 9836 b23c f5a4 abbc ee61 35bd
000000c0: 9cc0 743d a266 fd3b 42e1 6c3d 1eac a2bd
000000d0: 5ac3 b9bd 9698 e23c f22a 303d b64c a03d
000000e0: dc69 483d 60ec 19bd 67d1 cebd 35fc 2f3d
000000f0: 9017 213d de2c 4abd 9ae8 87bd c178 ad3d
00000100: cd9a b6bd 628a 7b3d 3dc1 203a 22c7 cebd
00000110: f4c2 50bd df15 eabd 9b05 303c ac40 de3b
00000120: b34f 5b3d 31ea 5cbd 9ad4 79bd 931c c0bd
00000130: 4070 aebd a56f 44bd 2afb afbc ac84 533d
00000140: 93c7 993d 300d f03c 6327 333b 2fad a9bd
00000150: 24d4 adbd fcec 2b3c 65e6 e43c 61bb eebc
00000160: 1f33 33be e100 54bd 5769 80bc 2e09 d5bd
00000170: 0bb5 a1bd 7224 f0bc aa2d e73b 0ba2 373d
00000180: 2c3f bbbd 198f 493d bf48 9f3d 3a47 c0bc
00000190: 5a56 3d3c 627c 5bbd d09d 96bd a1b3 11bb
000001a0: 11c8 c7bd bab3 6dbc 8de8 cbbd 60a6 08bd
000001b0: ebe3 aabd 9edf 3ebd b7b7 93bd 4410 45be
000001c0: 1ba6 5bbc 3b70 3bbd f45c 0f3d ee27 883a
000001d0: 44f9 6a3d 7e99 08be 0f20 cc3c b1f0 73bd
000001e0: c947 a4bc 5339 babd 313c d6bd 3aba 07bc
000001f0: 630c c2bc 69e2 03bd 8889 b5bc 6258 91bc
00000200: d203 e63c cf3a 413d b1fd 81bd 189f 86bd
00000210: feb3 22bd 398e e93b b344 293d ff72 39bd
00000220: 3eb2 4ebd ce77 f13c b431 56bd 03eb 68bb
00000230: 422c 98ba c5d9 f33b 22f4 eabd 4d78 debd
00000240: d177 ab3b f9aa 7cbc 8047 87bd b1e0 393d
00000250: 6ad6 72bd 66fc 06bb d3bc 0f3b d2c9 83bd
00000260: 1760 2ebc 14c3 433d 5739 4d3c c552 0dbe
00000270: 6c52 0cbd e8de 07bc 8bac 3b3c e722 88bc
00000280: d272 90bd 3527 4bbd de29 88bc d723 123d
00000290: 2404 c6bd 2fe2 e6bd d314 02bd a114 503c
000002a0: 5f6f 14be 022e f73c 60c6 c83c 5500 24bd
000002b0: a92c 88bd 692f 85bd 5480 b3bd 0f77 81bc
000002c0: cac3 5dbd 1434 efbd 51c2 763c 467b bfbd
000002d0: 4b8f bfbc 5866 b6bc 8df2 c53b 467d d9bd
000002e0: ce04 683d 949c f6bb 697e 15bd e485 05bd
000002f0: cc59 1bbd 6144 b1bd 2620 0fbb 3e9c d63d
00000300: 1875 173d b480 e8bc 6ae9 c4bb c138 debd
00000310: f98b 8bbd 9b94 a2bc 5434 953c 4e07 acbc
00000320: c180 d6bd 2e4b c5bc cb2f 35bd 626a f1bc
00000330: 736b 7bbd d05e 74b8 0f35 903c 623d 87bc
00000340: a0e2 adbd dd8f ccbc 224a 47bd 6560 6c3d
00000350: 1a0c 36bc 4ff9 ffbb 1474 c2bd 39c3 f8bc
00000360: b993 a2bd 5880 a5bd f514 81bd 4e04 b6bd
00000370: 76d3 a93c a09a 023c cb58 32bd 1c7a 6d3c
00000380: 299f a5bd 6947 603d 32bb 9ebc c97c b0bc
00000390: 882b 3bbd 9e7c 6d3d ffd5 25bd b972 bd3c
000003a0: 4628 bd3c f6f8 96bc bbbc fcbc e41d dcbc
000003b0: 533a 9fbd 0eed ebbc 99aa a9bd 02d6 4c3d
000003c0: 798b 2e3c e511 6cbd 3eac 8abd 3394 b1bd
000003d0: 40be 733d d424 e8bd f035 9abc 6b3e b13c
000003e0: 7f31 283d 4103 6cbd e2de ccbd e7ce 973b
000003f0: 68b2 a2bd 8424 e7bd a6cf 44bd 8310 84bd

linear2.bias f4 [3]
-0.012145861 -0.059729755 0.012204298
00000000: 6fff 46bc 30a7 74bd 89f4 473c
